(0): Sequential(
  (Conv2d): Conv2d(3, 32, kernel_size=(3, 3), stride=(2, 2), padding=(1, 1), bias=False)
  (BatchNorm2d): BatchNorm2d(32, eps=0.0001, momentum=0.03, affine=True, track_running_stats=True)
  (activation): LeakyReLU(negative_slope=0.1, inplace=True)
)
(1): Sequential(
  (Conv2d): Conv2d(32, 64, kernel_size=(3, 3), stride=(2, 2), padding=(1, 1), bias=False)
  (BatchNorm2d): BatchNorm2d(64, eps=0.0001, momentum=0.03, affine=True, track_running_stats=True)
  (activation): LeakyReLU(negative_slope=0.1, inplace=True)
)
(2): Sequential(
  (Conv2d): Conv2d(64, 64, kernel_size=(3, 3), stride=(1, 1), padding=(1, 1), bias=False)
  (BatchNorm2d): BatchNorm2d(64, eps=0.0001, momentum=0.03, affine=True, track_running_stats=True)
  (activation): LeakyReLU(negative_slope=0.1, inplace=True)
)
(3): FeatureConcat_l()
(4): Sequential(
  (Conv2d): Conv2d(32, 32, kernel_size=(3, 3), stride=(1, 1), padding=(1, 1), bias=False)
  (BatchNorm2d): BatchNorm2d(32, eps=0.0001, momentum=0.03, affine=True, track_running_stats=True)
  (activation): LeakyReLU(negative_slope=0.1, inplace=True)
)
(5): Sequential(
  (Conv2d): Conv2d(32, 32, kernel_size=(3, 3), stride=(1, 1), padding=(1, 1), bias=False)
  (BatchNorm2d): BatchNorm2d(32, eps=0.0001, momentum=0.03, affine=True, track_running_stats=True)
  (activation): LeakyReLU(negative_slope=0.1, inplace=True)
)
(6): FeatureConcat()
(7): Sequential(
  (Conv2d): Conv2d(64, 64, kernel_size=(1, 1), stride=(1, 1), bias=False)
  (BatchNorm2d): BatchNorm2d(64, eps=0.0001, momentum=0.03, affine=True, track_running_stats=True)
  (activation): LeakyReLU(negative_slope=0.1, inplace=True)
)
(8): FeatureConcat()
(9): MaxPool2d(kernel_size=2, stride=2, padding=0, dilation=1, ceil_mode=False)
(10): Sequential(
  (Conv2d): Conv2d(128, 128, kernel_size=(3, 3), stride=(1, 1), padding=(1, 1), bias=False)
  (BatchNorm2d): BatchNorm2d(128, eps=0.0001, momentum=0.03, affine=True, track_running_stats=True)
  (activation): LeakyReLU(negative_slope=0.1, inplace=True)
)
(11): FeatureConcat_l()
(12): Sequential(
  (Conv2d): Conv2d(64, 64, kernel_size=(3, 3), stride=(1, 1), padding=(1, 1), bias=False)
  (BatchNorm2d): BatchNorm2d(64, eps=0.0001, momentum=0.03, affine=True, track_running_stats=True)
  (activation): LeakyReLU(negative_slope=0.1, inplace=True)
)
(13): Sequential(
  (Conv2d): Conv2d(64, 64, kernel_size=(3, 3), stride=(1, 1), padding=(1, 1), bias=False)
  (BatchNorm2d): BatchNorm2d(64, eps=0.0001, momentum=0.03, affine=True, track_running_stats=True)
  (activation): LeakyReLU(negative_slope=0.1, inplace=True)
)
(14): FeatureConcat()
(15): Sequential(
  (Conv2d): Conv2d(128, 128, kernel_size=(1, 1), stride=(1, 1), bias=False)
  (BatchNorm2d): BatchNorm2d(128, eps=0.0001, momentum=0.03, affine=True, track_running_stats=True)
  (activation): LeakyReLU(negative_slope=0.1, inplace=True)
)
(16): FeatureConcat()
(17): MaxPool2d(kernel_size=2, stride=2, padding=0, dilation=1, ceil_mode=False)
(18): Sequential(
  (Conv2d): Conv2d(256, 256, kernel_size=(3, 3), stride=(1, 1), padding=(1, 1), bias=False)
  (BatchNorm2d): BatchNorm2d(256, eps=0.0001, momentum=0.03, affine=True, track_running_stats=True)
  (activation): LeakyReLU(negative_slope=0.1, inplace=True)
)
(19): FeatureConcat_l()
(20): Sequential(
  (Conv2d): Conv2d(128, 128, kernel_size=(3, 3), stride=(1, 1), padding=(1, 1), bias=False)
  (BatchNorm2d): BatchNorm2d(128, eps=0.0001, momentum=0.03, affine=True, track_running_stats=True)
  (activation): LeakyReLU(negative_slope=0.1, inplace=True)
)
(21): Sequential(
  (Conv2d): Conv2d(128, 128, kernel_size=(3, 3), stride=(1, 1), padding=(1, 1), bias=False)
  (BatchNorm2d): BatchNorm2d(128, eps=0.0001, momentum=0.03, affine=True, track_running_stats=True)
  (activation): LeakyReLU(negative_slope=0.1, inplace=True)
)
(22): FeatureConcat()
(23): Sequential(
  (Conv2d): Conv2d(256, 256, kernel_size=(1, 1), stride=(1, 1), bias=False)
  (BatchNorm2d): BatchNorm2d(256, eps=0.0001, momentum=0.03, affine=True, track_running_stats=True)
  (activation): LeakyReLU(negative_slope=0.1, inplace=True)
)
(24): FeatureConcat()
(25): MaxPool2d(kernel_size=2, stride=2, padding=0, dilation=1, ceil_mode=False)
(26): Sequential(
  (Conv2d): Conv2d(512, 512, kernel_size=(3, 3), stride=(1, 1), padding=(1, 1), bias=False)
  (BatchNorm2d): BatchNorm2d(512, eps=0.0001, momentum=0.03, affine=True, track_running_stats=True)
  (activation): LeakyReLU(negative_slope=0.1, inplace=True)
)
(27): Sequential(
  (Conv2d): Conv2d(512, 256, kernel_size=(1, 1), stride=(1, 1), bias=False)
  (BatchNorm2d): BatchNorm2d(256, eps=0.0001, momentum=0.03, affine=True, track_running_stats=True)
  (activation): LeakyReLU(negative_slope=0.1, inplace=True)
)
(28): Sequential(
  (Conv2d): Conv2d(256, 512, kernel_size=(3, 3), stride=(1, 1), padding=(1, 1), bias=False)
  (BatchNorm2d): BatchNorm2d(512, eps=0.0001, momentum=0.03, affine=True, track_running_stats=True)
  (activation): LeakyReLU(negative_slope=0.1, inplace=True)
)
(29): Sequential(
  (Conv2d): Conv2d(512, 255, kernel_size=(1, 1), stride=(1, 1))
)
(30): YOLOLayer()
(31): FeatureConcat()
(32): Sequential(
  (Conv2d): Conv2d(256, 128, kernel_size=(1, 1), stride=(1, 1), bias=False)
  (BatchNorm2d): BatchNorm2d(128, eps=0.0001, momentum=0.03, affine=True, track_running_stats=True)
  (activation): LeakyReLU(negative_slope=0.1, inplace=True)
)
(33): Upsample(scale_factor=2.0, mode=nearest)
(34): FeatureConcat()
(35): Sequential(
  (Conv2d): Conv2d(384, 256, kernel_size=(3, 3), stride=(1, 1), padding=(1, 1), bias=False)
  (BatchNorm2d): BatchNorm2d(256, eps=0.0001, momentum=0.03, affine=True, track_running_stats=True)
  (activation): LeakyReLU(negative_slope=0.1, inplace=True)
)
(36): Sequential(
  (Conv2d): Conv2d(256, 255, kernel_size=(1, 1), stride=(1, 1))
)
(37): YOLOLayer()